…
: 'simple', 'num_layer': 5, 'emb_dim': 384, 'gpu': True, 'gpu_id': 3, 'max_epoch': 100, 'train_loss': 'none', 'epoch': 0, 'learner': 'adam', 'drop_ratio': 0, 'batch_size': 128, 'num_workers': 10, 'training_ratio': 0.2, 'device': device(type='cuda', index=3), 'exp_id': 71183}
2024-03-21 17:59:46,412 - INFO - Loading faiss with AVX2 support.
2024-03-21 17:59:46,453 - INFO - Successfully loaded faiss with AVX2 support.
2024-03-21 17:59:50,598 - INFO - GIN(
  (gnn): GNN(
    (gnn_node): GNN_node_Virtualnode(
      (atom_encoder): AtomEncoder(
        (atom_embedding_list): ModuleList(
          (0): Embedding(119, 384)
          (1): Embedding(5, 384)
          (2): Embedding(12, 384)
          (3): Embedding(12, 384)
          (4): Embedding(10, 384)
          (5): Embedding(6, 384)
          (6): Embedding(6, 384)
          (7): Embedding(2, 384)
          (8): Embedding(2, 384)
        )
      )
      (virtualnode_embedding): Embedding(1, 384)
      (convs): ModuleList(
        (0): GINConv()
        (1): GINConv()
        (2): GINConv()
        (3): GINConv()
        (4): GINConv()
      )
      (batch_norms): ModuleList(
        (0): BatchNorm1d(384, eps=1e-05, momentum=0.1, affine=True, track_running_stats=True)
        (1): BatchNorm1d(384, eps=1e-05, momentum=0.1, affine=True, track_running_stats=True)
        (2): BatchNorm1d(384, eps=1e-05, momentum=0.1, affine=True, track_running_stats=True)
        (3): BatchNorm1d(384, eps=1e-05, momentum=0.1, affine=True, track_running_stats=True)
        (4): BatchNorm1d(384, eps=1e-05, momentum=0.1, affine=True, track_running_stats=True)
      )
      (mlp_virtualnode_list): ModuleList(
        (0): Sequential(
          (0): Linear(in_features=384, out_features=768, bias=True)
          (1): BatchNorm1d(768, eps=1e-05, momentum=0.1, affine=True, track_running_stats=True)
          (2): ReLU()
          (3): Linear(in_features=768, out_features=384, bias=True)
          (4): BatchNorm1d(384, eps=1e-05, momentum=0.1, affine=True, track_running_stats=True)
          (5): ReLU()
        )
        (1): Sequential(
          (0): Linear(in_features=384, out_features=768, bias=True)
          (1): BatchNorm1d(768, eps=1e-05, momentum=0.1, affine=True, track_running_stats=True)
          (2): ReLU()
          (3): Linear(in_features=768, out_features=384, bias=True)
          (4): BatchNorm1d(384, eps=1e-05, momentum=0.1, affine=True, track_running_stats=True)
          (5): ReLU()
        )
        (2): Sequential(
          (0): Linear(in_features=384, out_features=768, bias=True)
          (1): BatchNorm1d(768, eps=1e-05, momentum=0.1, affine=True, track_running_stats=True)
          (2): ReLU()
          (3): Linear(in_features=768, out_features=384, bias=True)
          (4): BatchNorm1d(384, eps=1e-05, momentum=0.1, affine=True, track_running_stats=True)
          (5): ReLU()
        )
        (3): Sequential(
          (0): Linear(in_features=384, out_features=768, bias=True)
          (1): BatchNorm1d(768, eps=1e-05, momentum=0.1, affine=True, track_running_stats=True)
          (2): ReLU()
          (3): Linear(in_features=768, out_features=384, bias=True)
          (4): BatchNorm1d(384, eps=1e-05, momentum=0.1, affine=True, track_running_stats=True)
          (5): ReLU()
        )
      )
    )
    (graph_pred_linear): Linear(in_features=384, out_features=1, bias=True)
  )
)
2024-03-21 17:59:50,599 - INFO - gnn.gnn_node.atom_encoder.atom_embedding_list.0.weight	torch.Size([119, 384])	cuda:3	True
2024-03-21 17:59:50,599 - INFO - gnn.gnn_node.atom_encoder.atom_embedding_list.1.weight	torch.Size([5, 384])	cuda:3	True
2024-03-21 17:59:50,599 - INFO - gnn.gnn_node.atom_encoder.atom_embedding_list.2.weight	torch.Size([12, 384])	cuda:3	True
…
